models/mnist/model.safetensors (safetensors, 31536 bytes, 2 tensors)

bias f4 [10]
-0.21800455 0.28428084 0.01274157 -0.16658305 0.0663178 0.7216007 -0.04628886 0.3629118
-0.88236165 -0.13446133
00000000: 963c 5fbe 428d 913e 05c2 503c bf94 2abe
00000010: a0d1 873d d3ba 383f 6399 3dbd 93cf b93e
00000020: 74e2 61bf 3bb0 09be

weight f4 [10, 784]
0.0 0.0 0.0 0.0 0.0 0.0 0.0 0.0
0.0 0.0 0.0 0.0 -2.9093837e-06 -1.1825579e-05 -6.07041e-06 -2.529337e-07
0.0 0.0 0.0 0.0 0.0 0.0 0.0 0.0
0.0 0.0 0.0 0.0 0.0 0.0 0.0 0.0
-5.661587e-07 -1.9336983e-06 -1.8843968e-05 -5.6356843e-05 -0.00014828291 -0.00023185575 -0.00047122163 0.000706699
0.0019929612 0.00064459594 -0.00062542583 0.0004957992 0.0022180355 0.0008661067 -0.00036674587 -0.0002802874
-0.00022042784 -0.00012121166 -3.803835e-05 -4.0077616e-06 0.0 0.0 0.0 0.0
0.0 0.0 -2.3721043e-06 7.637877e-05 1.4935831e-05 -4.5617173e-05 -0.00068736786 -0.00096619286
-0.0019318961 -0.0042134975 -0.0056534824 -0.0068170326 -0.008893075 -0.012538875 -0.018209064 -0.021779291
-0.021217851 -0.019282956 -0.015934289 -0.012990538 -0.009138195 -0.005110734 -0.0025361502 -0.0010052385
-0.00027504546 -2.8961567e-05 0.0 0.0 0.0 0.0 -5.8667115e-06 9.337812e-05
-0.0005680452 -0.0036879529 -0.00547425 -0.008058803 -0.008016184 -0.017687215 -0.022450406 -0.024437213
-0.0325986 -0.033625826 -0.042980593 -0.04802606 -0.05149964 -0.057698816 -0.07000441 -0.064560376
-0.048154995 -0.035519365 -0.022346681 -0.010461061 -0.004141816 -0.0011960308 -0.00023184456 0.0
0.0 -6.645953e-07 -1.7610599e-05 -1.0367882e-05 -0.0014086767 -0.008551373 -0.012975112 -0.016598007
-0.023194999 -0.02959672 -0.037932575 -0.03280216 -0.03038407 -0.0064838594 -0.0009408676 0.013178613
-0.013864725 -0.019813761 -0.03989421 -0.04708598 -0.04174397 -0.039930884 -0.031517256 -0.02600798
-0.018161144 -0.0055513354 -0.00076477794 -1.38771475e-05 0.0 0.0 -7.846553e-05 -0.0003393068
-0.0048349025 -0.017608484 -0.024244128 -0.037106875 -0.049262892 -0.05382847 -0.03419511 -0.012884655
0.017227868 0.087458424 0.11784859 0.1287722 0.12063891 0.119032465 0.08063831 0.03192185
-0.0021878255 -0.0043654065 -0.021642623 -0.044947434 -0.038235996 -0.016654002 -0.0040777377 -0.00062124373
0.0 -7.659063e-07 -0.00019995657 -0.0013605257 -0.009289131 -0.019883068 -0.03366311 -0.049964584
-0.0664937 -0.068952784 -0.024634566 0.010797214 0.046554036 0.09388974 0.10674081 0.121353075
0.15706432 0.17500664 0.14949754 0.09397845 0.059174746 0.06672646 0.041274805 -0.029906977
-0.06395833 -0.038097817 -0.01281329 -0.0021593901 -6.1435793e-07 -7.658184e-05 -0.0010237773 -0.0032283645
-0.015549919 -0.026065525 -0.041992832 -0.06074537 -0.0763495 -0.033928517 -9.1968315e-05 0.028500227
0.04313348 0.057751916 0.072669744 0.104564995 0.15402333 0.19682942 0.17700782 0.11214589
0.06102847 0.062446024 0.070930324 0.016518079 -0.05724314 -0.050885167 -0.01517913 -0.00085120037
0.0006727788 -0.00014475826 -0.0014305182 -0.006100565 -0.02516705 -0.0399612 -0.050391186 -0.063917585
-0.053962115 -0.017384842 0.010013436 0.01402903 0.036333933 0.043722615 0.07975459 0.116389796
0.18085293 0.19622944 0.17922652 0.111955926 0.06905254 0.058563523 0.09878857 0.077997625
-0.031138796 -0.05426144 -0.014557581 -0.0011169653 -9.982202e-06 -0.00024108228 -0.0016502023 -0.0079288045
00000000: 0000 0000 0000 0000 0000 0000 0000 0000
00000010: 0000 0000 0000 0000 0000 0000 0000 0000
00000020: 0000 0000 0000 0000 0000 0000 0000 0000
00000030: d53e 43b6 7a66 46b7 6db0 cbb6 f1ca 87b4
00000040: 0000 0000 0000 0000 0000 0000 0000 0000
00000050: 0000 0000 0000 0000 0000 0000 0000 0000
00000060: 0000 0000 0000 0000 0000 0000 0000 0000
00000070: 0000 0000 0000 0000 0000 0000 0000 0000
00000080: 21fa 17b5 afc4 01b6 1d13 9eb7 b360 6cb8
00000090: 647c 1bb9 4e1e 73b9 4c0e f7b9 c441 393a
000000a0: 579c 023b 1afa 283a 9ef3 23ba 85f8 013a
000000b0: 765c 113b 700b 633a cc47 c0b9 8af3 92b9
000000c0: a622 67b9 0433 feb8 5e8b 1fb8 697a 86b6
000000d0: 0000 0000 0000 0000 0000 0000 0000 0000
000000e0: 0000 0000 0000 0000 7130 1fb6 8a2d a038
000000f0: e894 7a37 1155 3fb8 7a30 34ba 1b48 7dba
00000100: ad37 fdba 6111 8abb d940 b9bb 6a61 dfbb
00000110: 43b4 11bc db6f 4dbc 2d2b 95bc 7c6a b2bc
00000120: 0fd1 adbc 4af7 9dbc a088 82bc 44d6 54bc
00000130: 5eb8 15bc f277 a7bb 8a35 26bb 35c2 83ba
00000140: fa33 90b9 7ef2 f2b7 0000 0000 0000 0000
00000150: 0000 0000 0000 0000 abda c4b6 ffd3 c338
00000160: dee8 14ba 95b1 71bb 5661 b3bb 1209 04bc
00000170: 5056 03bc c7e4 90bc eae9 b7bc 8d30 c8bc
00000180: 1c86 05bd 3cbb 09bd 6b0c 30bd f9b6 44bd
00000190: 49f1 52bd 9855 6cbd 795e 8fbd 3b38 84bd
000001a0: 2c3e 45bd c17c 11bd 6310 b7bc df64 2bbc
000001b0: 12b8 87bb 22c4 9cba 4d1b 73b9 0000 0000
000001c0: 0000 0000 a466 32b5 79ba 93b7 b7f1 2db7
000001d0: 59a3 b8ba 0f1b 0cbc 9095 54bc 8bf8 87bc
000001e0: 7003 bebc d274 f2bc 305f 1bbd 8f5b 06bd
000001f0: 03e8 f8bc 8e76 d4bb 8ea4 76ba 1ceb 573c
00000200: df28 63bc 7850 a2bc 1c68 23bd 3bdd 40bd
00000210: bafb 2abd 918e 23bd 3d18 01bd b00e d5bc
00000220: aec6 94bc fae7 b5bb 617b 48ba e5d1 68b7
00000230: 0000 0000 0000 0000 dc8d a4b8 fde4 b1b9
00000240: 1a6e 9ebb ab3f 90bc 9f9b c6bc 61fd 17bd
00000250: e3c7 49bd 3e7b 5cbd 2c10 0cbd 291a 53bc
00000260: 7521 8d3c 671d b33d 9a5a f13d dcdc 033e
00000270: 8811 f73d 4bc7 f33d b325 a53d 7cc0 023d
00000280: 9f61 0fbb af0b 8fbb df4b b1bc cd1a 38bd
00000290: 599d 1cbd f96d 88bc 8b9e 85bb f6da 22ba
000002a0: 0000 0000 ae98 4db5 6fab 51b9 ab53 b2ba
000002b0: 7031 18bc d1e1 a2bc 54e2 09bd aaa7 4cbd
000002c0: d92d 88bd 1e37 8dbd 6ece c9bc cce6 303c
000002d0: 72af 3e3d 4449 c03d ed9a da3d f687 f83d
000002e0: 78d5 203e f134 333e e215 193e c677 c03d
000002f0: 3861 723d e2a7 883d c50f 293d 7aff f4bc
00000300: 96fc 82bd 750c 1cbd d5ee 51bc 8e84 0dbb
00000310: 5bea 24b5 909a a0b8 4430 86ba f892 53bb
00000320: 16c5 7ebc 5e87 d5bc ad00 2cbd 23d0 78bd
00000330: 205d 9cbd a1f8 0abd 1ddf c0b8 4f79 e93c
00000340: bbac 303d 468d 6c3d e0d3 943d 2c26 d63d
00000350: 4bb8 1d3e a78d 493e 8a41 353e bfac e53d
00000360: fdf8 793d 67c7 7f3d eb43 913d ec50 873c
00000370: c877 6abd f76c 50bd e3b1 78bc 1723 5fba
00000380: 6c5d 303a 40ca 17b9 3a80 bbba 40e7 c7bb
00000390: 212b cebc 5bae 23bd fd66 4ebd 39e7 82bd
000003a0: 6107 5dbd a86a 8ebc 650f 243c 04da 653c
000003b0: e4d2 143d 7c16 333d 6056 a33d c65d ee3d
000003c0: 8331 393e 5ff0 483e 2887 373e 2649 e53d
000003d0: 6b6b 8d3d 4ee0 6f3d a951 ca3d 38bd 9f3d
000003e0: ca16 ffbc 3e41 5ebd ec82 6ebc 2367 92ba
000003f0: 3b79 27b7 08cb 7cb9 9a4b d8ba d1e7 01bc
